src/networks/network_weights/rnn250rnn150e200dr25_3_5_out_no_RR_2_right_weights_097.tflite (tflite, 254056 bytes, 10 tensors)

simple_rnn_1/simple_rnn_cell_1/bias f4 [150]
0	0xbb3747af	-0.002796631
1	0xbb14f9fa	-0.0022732005
2	0x3b0eadd9	0.0021771102
3	0xba0db3db	-0.00054055237
4	0x3a23358e	0.0006225937
5	0x3a2894bd	0.0006430855
6	0x3acc2035	0.0015573563
7	0x3aa6390a	0.0012681794
8	0xbbcc014a	-0.0062257396
9	0x3b004e26	0.001957783
10	0x3a645a2b	0.0008710946
11	0xb9206772	-0.00015297325
12	0xbab9f92b	-0.0014188638
13	0xbb43ea66	-0.002989435
14	0xbb0208dd	-0.0019841709
15	0xbaf0f8c4	-0.0018384685
16	0x3aa7fca3	0.001281638
17	0xbb1ec468	-0.0024225954
18	0xbb038184	-0.002006621
19	0x3b22eb26	0.0024859398
20	0xbb534823	-0.0032239042
21	0xb9bc7e90	-0.0003595245
22	0x3a80590c	0.0009792163
23	0x3b7c4833	0.0038495183
24	0xba1aed6e	-0.00059100136
25	0xbb88bb41	-0.004172713
26	0xbae951a9	-0.0017800826
27	0x3a37d6c7	0.00070129003
28	0xba2dcff6	-0.0006630415
29	0xbb5ea00c	-0.0033969907
30	0x39837f8f	0.00025081306
31	0xbb5946d8	-0.0033153798
32	0x3b729d38	0.003701998
33	0x3b0ede07	0.002179982
34	0x39ebf9dd	0.00045008856
35	0x3a844b53	0.0010093249
36	0x3ac42159	0.0014963552
37	0xbadb2700	-0.0016719997
38	0xba56dea8	-0.00081966305
39	0xba7d21dd	-0.000965623
40	0xb95f849b	-0.00021316337
41	0x3b2bc416	0.0026209406
42	0xb9b1d90e	-0.0003392179
43	0x3acef085	0.0015788233
44	0xbb7e22fd	-0.003877818
45	0xba2db9a7	-0.00066270906
46	0x3aa8cfd9	0.0012879326
47	0x3ae96f5d	0.0017809678
48	0x3b92c1f1	0.004478686
49	0xbabc514e	-0.0014367492
50	0x3b31f8d8	0.002715638
51	0x3b36e61a	0.0027908147
52	0xbb034c2a	-0.002003441
53	0xbaf9c229	-0.0019055057
54	0xba4fd84c	-0.0007928654
55	0xbac7d896	-0.0015247043
56	0xbb3d7287	-0.0028907375
57	0x3abc2e34	0.0014357031
58	0x3934f282	0.00017256479
59	0xbb156ff0	-0.0022802316
60	0x3b015df4	0.0019739838
61	0x3a766120	0.0009398628
62	0x3ad7700f	0.0016436594
63	0xbb03c2b8	-0.0020105075
64	0x3b6812dc	0.0035411632
65	0x3a53d90c	0.0008081354
66	0x3b557e3c	0.0032576462
67	0x3a61ca40	0.00086132064
68	0xba703c12	-0.00091642246
69	0xbb726653	-0.003698726
70	0xba8cb601	-0.0010735394
71	0x3a314f57	0.0006763837
72	0x3ac8db91	0.0015324225
73	0xba8a14cd	-0.0010534764
74	0xbb5f37c9	-0.003406035
75	0x3b18c582	0.0023311083
76	0xbba11fe6	-0.0049171327
77	0x3b34fa5b	0.0027615044
78	0xbb52d179	-0.0032168312
79	0x3ad00221	0.0015869775
80	0xb958d853	-0.00020679952
81	0x398d2ec9	0.00026928473
82	0xbb31efaf	-0.002715092
83	0x3ba34923	0.004983084
84	0xbb15f609	-0.0022882244
85	0xbae97e4f	-0.0017814132
86	0xbafc8d8f	-0.0019268262
87	0x3c108985	0.00882185
88	0x3afecc0f	0.0019439476
89	0x3b2cddf5	0.0026377414
90	0x39f17615	0.0004605508
91	0x3b8f416c	0.0043718126
92	0xbb02250b	-0.0019858505
93	0x3acbe3b5	0.0015555533
94	0xbb0738f3	-0.002063331
95	0xbaacc91d	-0.0013182495
96	0xba612f5f	-0.00085901277
97	0xbaea6026	-0.0017881438
98	0x3a937d03	0.0011252466
99	0xb9db6404	-0.00041845453
100	0xbb23111c	-0.0024882024
101	0xbb236c63	-0.002493643
102	0x3a2f7d7e	0.000669442
103	0x3acb424a	0.0015507427
104	0xbb0bc1a3	-0.0021325133
105	0xb973d08c	-0.00023251976
106	0x3b887a57	0.0041649747
107	0xba98569c	-0.0011622491
108	0x3a20a997	0.00061287865
109	0xb9cd826f	-0.00039197828
110	0xbba89c3a	-0.005145577
111	0xbb09fd80	-0.0021055639
112	0x3abade2d	0.0014256887
113	0x3ae2a671	0.0017292035
114	0x3a8e345d	0.0010849346
115	0xbabaf019	-0.0014262229
116	0x3ad071aa	0.0015903015
117	0x3b5feb09	0.0034167191
118	0xbbbc16c1	-0.005740017
119	0xba4fe9fe	-0.0007931291
120	0x395ab56d	0.00020857686
121	0x3aae8979	0.0013316117
122	0xbb621218	-0.0034495648
123	0xbbc0388c	-0.005866116
124	0xbb291bdb	-0.0025803957
125	0xbb21dc19	-0.0024697839
126	0x3b7d672e	0.0038666236
127	0x3a5d1db9	0.000843491
128	0x3a906635	0.0011016788
129	0xbb59068b	-0.0033115472
130	0x3aab7445	0.0013080916
131	0x3a39b94b	0.0007084801
132	0x3983e2b6	0.0002515518
133	0x3ac3aec6	0.0014929406
134	0xbb21c0af	-0.0024681499
135	0x3a403d6d	0.0007333372
136	0xb6d56dc3	-6.3606726e-06
137	0xbb3ea3bf	-0.00290893
138	0x3b46a68d	0.0030311674
139	0x3b1e5277	0.002415804
140	0xb70b7462	-8.312143e-06
141	0xbae638d0	-0.0017564539
142	0xba2fa277	-0.00066999294
143	0xbb3c2bf4	-0.0028712722
144	0x3b24cfd6	0.0025148294
145	0x393f3a80	0.00018236972
146	0x3b7e0bcb	0.0038764353
147	0x3b2f195e	0.0026718
148	0x3ba6f076	0.005094583
149	0xbb53ec81	-0.0032337012

simple_rnn/simple_rnn_cell/bias f4 [250]
0	0x3b74cec8	0.0037354697
1	0xbb807873	-0.0039206087
2	0x39acf485	0.00032988578
3	0xbab6d140	-0.0013947859
4	0x3a27f141	0.0006406494
5	0xbb937ca7	-0.0045009437
6	0xbb3182ac	-0.0027085943
7	0xbaed082c	-0.00180841
8	0xbaf10c26	-0.0018390461
9	0xbba68839	-0.005082157
10	0xbc506f29	-0.012721815
11	0x3a902ed1	0.001100028
12	0xba070683	-0.00051508116
13	0xbac3660b	-0.001490773
14	0xba98c2b6	-0.0011654708
15	0xbb200cc3	-0.002442167
16	0xbb0744ed	-0.0020640448
17	0x3ae7246c	0.0017634756
18	0x3a3d1ff7	0.0007214541
19	0xba8163ec	-0.0009871698
20	0xba0980c2	-0.00052453217
21	0xba078129	-0.00051690877
22	0x3b9563ee	0.0045590317
23	0x3baedc48	0.005336318
24	0x3ba87adc	0.005141599
25	0xbaada1d2	-0.0013247079
26	0x3a9e7abc	0.0012091021
27	0xbb6c53dd	-0.0036060729
28	0xbb7f6f9f	-0.0038976443
29	0x3b2015d0	0.0024427064
30	0x3b1bc291	0.0023767094
31	0xbb964c4b	-0.0045867315
32	0x3a413cb2	0.000737141
33	0x3ad90aeb	0.001655904
34	0x39fee1ee	0.00048614986
35	0x3afd4cde	0.0019325276
36	0x3b2d768d	0.0026468367
37	0x390af00b	0.00013250129
38	0x3af68031	0.0018806515
39	0xbbc24294	-0.005928347
40	0xbb2d69ca	-0.002646076
41	0x3a2cb28b	0.0006587884
42	0xbb2ca826	-0.0026345341
43	0x3b31d2cb	0.00271337
44	0xba3f479e	-0.00072967436
45	0xbb1bc45f	-0.002376817
46	0xb980ccee	-0.00024566747
47	0x3b63fef9	0.0034789427
48	0x3b2efa96	0.0026699654
49	0x3a008c96	0.00049037614
50	0x3ad982cc	0.0016594767
51	0xb9f696a5	-0.00047033015
52	0xbb37294e	-0.0027948203
53	0xbb61f2c1	-0.0034476968
54	0xbab86e45	-0.0014070949
55	0x3b3edfb6	0.0029125041
56	0xb79ea7bf	-1.891318e-05
57	0xbae4ce46	-0.0017456494
58	0xbb20d9c5	-0.0024543863
59	0x3b0a6b3a	0.002112104
60	0x3ba502f8	0.0050357543
61	0xb917c09a	-0.00014472232
62	0x3a4472be	0.00074939046
63	0x3aac8c48	0.0013164366
64	0xbad30ab7	-0.0016101216
65	0x3aa0b2f9	0.0012260369
66	0xb9ea2cb4	-0.00044665264
67	0x3bf4b23c	0.0074675363
68	0xbb01e67d	-0.001982122
69	0xbbb62d9a	-0.0055596353
70	0x3c158ba1	0.009127528
71	0x3aec7118	0.0018039076
72	0xba19237c	-0.00058417744
73	0x39b7b272	0.00035037432
74	0xba494b2f	-0.0007678745
75	0x3aaf496c	0.0013373322
76	0xbadcdaed	-0.0016849913
77	0x3a8979f7	0.0010488619
78	0xbb36f850	-0.0027919002
79	0x3ad7c563	0.0016462024
80	0xbad3c386	-0.0016156293
81	0xba2b54af	-0.0006535751
82	0xbb007a55	-0.0019604166
83	0x39ecf124	0.00045193092
84	0x3a0a3031	0.00052714633
85	0x3a0f76d8	0.0005472726
86	0x3a54f7ea	0.00081241
87	0xbb36aa00	-0.0027872324
88	0x3b23ae3f	0.0024975685
89	0x3b404e1a	0.0029343427
90	0xb79c3957	-1.862335e-05
91	0xbad2951f	-0.001606617
92	0xbb48cd74	-0.0030640038
93	0x3b8f0320	0.004364386
94	0xba498b1f	-0.0007688272
95	0x3aa1d562	0.0012346918
96	0xbb2c6572	-0.0026305583
97	0xbaca3f36	-0.0015430215
98	0xb98f8555	-0.00027374426
99	0x3b90cdd8	0.0044190697
100	0x3a900d58	0.0010990305
101	0x3a365425	0.00069552875
102	0x3c063efe	0.008193729
103	0x3acd364a	0.0015656438
104	0xbb62816d	-0.0034562007
105	0xbac352e4	-0.0014902023
106	0x3a9cc2f8	0.0011959961
107	0xbb398139	-0.0028305782
108	0xbaf2dfba	-0.001852981
109	0x3b130579	0.0022433682
110	0xbb4b12c5	-0.003098653
111	0xbb67d8e3	-0.0035377077
112	0x3aaa392b	0.0012987008
113	0xb9c1e6b1	-0.00036983707
114	0x3b2582a7	0.0025254877
115	0x39b36302	0.00034215307
116	0xbbcdd436	-0.006281401
117	0xbade3956	-0.0016954343
118	0x3af8624f	0.0018950197
119	0xbaf26fd5	-0.0018496463
120	0xbb3b8eac	-0.0028618975
121	0xbb1ab39e	-0.0023605595
122	0xbba43b78	-0.005011972
123	0x3a4d8071	0.00078392687
124	0xbadeed2c	-0.0017007939
125	0xbb44e95a	-0.0030046315
126	0xbaa8318c	-0.0012832149
127	0xb9b1cd94	-0.00033913238
128	0xbb541d4c	-0.0032366095
129	0x3b616149	0.0034390262
130	0xbae01f69	-0.0017099205
131	0x3b1e2b12	0.0024134559
132	0x3b9eae89	0.0048425836
133	0x3a0099b3	0.00049057155
134	0x3b026a32	0.0019899723
135	0x3a30cadb	0.0006744095
136	0x3b945a09	0.0045273346
137	0xbb2dfeff	-0.0026549695
138	0x3b2a62ef	0.002599891
139	0x39d0a13a	0.00039792975
140	0x3baae6ea	0.0052155154
141	0x3a38600d	0.00070333557
142	0xb9368f15	-0.00017410175
143	0xbb3298e9	-0.0027251786
144	0x3a69e64c	0.00089225615
145	0x3ab71f82	0.0013971182
146	0xbb0d205e	-0.0021534185
147	0xbb21c86c	-0.002468611
148	0xbba1eb5a	-0.004941386
149	0xbb440afe	-0.0029913778
150	0x3b61ac83	0.00344351
151	0xb9c98b9e	-0.0003844173
152	0xbb4fb4ea	-0.0031693527
153	0x3ab244df	0.0013600847
154	0xbb284ef3	-0.0025681823
155	0xba7d2d72	-0.0009657956
156	0xbad7ac7a	-0.00164546
157	0xb69b79f8	-4.633559e-06
158	0xba81d974	-0.0009906725
159	0x39b612e1	0.0003472781
160	0x3b78629b	0.003790057
161	0xbab4a994	-0.0013783448
162	0xbaf5a8f0	-0.0018742364
163	0xbb78cc54	-0.0037963586
164	0x3b820b72	0.0039686495
165	0x3a1120f0	0.0005536219
166	0xba9be052	-0.0011892414
167	0xba3c568d	-0.0007184528
168	0x3ba5ec40	0.0050635636
169	0xbb82ba74	-0.003989512
170	0x3b068ae3	0.002052956
171	0x3a5afd0b	0.00083537464
172	0x3a8d50c7	0.001078152
173	0xbb2fef4e	-0.0026845518
174	0xbaf9a62e	-0.0019046718
175	0xbb7389ef	-0.0037161072
176	0x3b02c62a	0.001995454
177	0xb9944a62	-0.0002828418
178	0xba0c6ece	-0.00053570874
179	0xbba48efc	-0.005021928
180	0x3b28e88a	0.002577337
181	0x3af1cc51	0.0018447732
182	0xba44fc32	-0.00075143867
183	0x3aec658b	0.0018035633
184	0x3bb8c250	0.005638398
185	0x3a91c529	0.001112138
186	0x3b3d0644	0.0028842846
187	0x3aea9c44	0.0017899354
188	0xba3ec95f	-0.00072779314
189	0xb95affd1	-0.00020885399
190	0xba0678fc	-0.00051297224
191	0xb9d728da	-0.00041038432
192	0x3b09f606	0.0021051182
193	0xb9a8f52f	-0.00032226133
194	0x3b1a8483	0.0023577518
195	0xba95620a	-0.0011397016
196	0x3bceac8d	0.0063071907
197	0x3b16f697	0.0023035163
198	0x3abd2eb4	0.0014433474
199	0xb9e72565	-0.00044087615
200	0xbb6871da	-0.0035468251
201	0x39b22088	0.00033975043
202	0xbb318b06	-0.002709092
203	0x3b07640e	0.0020659002
204	0xbb3ea26b	-0.0029088508
205	0xbac81347	-0.0015264534
206	0xbad8b359	-0.0016532942
207	0xbb6358e8	-0.0034690443
208	0xbb230e61	-0.0024880397
209	0xbb143943	-0.0022617138
210	0xba02353f	-0.0004967041
211	0x3b0986cf	0.0020984893
212	0x3b453aa8	0.0030094776
213	0x3b8b57a7	0.0042523923
214	0xbbc44e6d	-0.0059907944
215	0x3b458085	0.0030136418
216	0xba8362f1	-0.0010023994
217	0xbb6a3a9c	-0.00357405
218	0xba67e14c	-0.00088455225
219	0xbb392b05	-0.0028254401
220	0xba1ccd24	-0.0005981496
221	0xb8f7ca69	-0.0001181558
222	0xbb032a47	-0.0020014213
223	0xba58a9ac	-0.0008265029
224	0x3b978449	0.004623924
225	0xbbc61b91	-0.0060457666
226	0x3ad8a636	0.0016529027
227	0xbbd7e48b	-0.0065885237
228	0xba6efe87	-0.0009116907
229	0xbad1b18a	-0.0015998345
230	0xbabf8ad9	-0.0014613523
231	0xbb80c11b	-0.00392927
232	0xba48b8b4	-0.00076569174
233	0xba9026b9	-0.0010997868
234	0x3b885436	0.0041604294
235	0x3b0e8c9e	0.0021751295
236	0x3a91144c	0.0011068671
237	0xb8a258ad	-7.741279e-05
238	0xbb20b5d0	-0.0024522431
239	0xbb46aeeb	-0.0030316662
240	0x3a4d3cfe	0.0007829218
241	0x3ac06836	0.0014679495
242	0xbbafb3d7	-0.0053620148
243	0xbb468d69	-0.003029669
244	0x3ae45aae	0.0017422044
245	0x39a94a53	0.00032289568
246	0x3af48025	0.0018653913
247	0xbb8b87e7	-0.004258144
248	0xbb37710a	-0.002799096
249	0x3a08faa5	0.0005225337

dense/bias f4 [6]
0	0x3cad9e2d	0.021193588
1	0xbbabece5	-0.005246746
2	0x3b3c2d86	0.0028713658
3	0xbb186071	-0.0023250843
4	0x3a664c17	0.0008785142
5	0xbcb2323e	-0.021752473

sequential/dense/MatMul f4 [6, 150]
0	0xbe3e37da	-0.18575993
1	0xbe3180c2	-0.17334273
2	0x3d876fc4	0.066131145
3	0x3e0b4c0a	0.13603225
4	0xbdca85db	-0.09888812
5	0x3e2a8048	0.16650498
6	0xbd6a1719	-0.057150934
7	0xbe16ede3	-0.14739184
8	0xbdfae4cc	-0.12250671
9	0xbc849c7f	-0.016187904
10	0x3dc50fd0	0.096221566
11	0xbd3cc7f9	-0.046089146
12	0x3b4f4d32	0.0031631705
13	0xbdfaec78	-0.12252134
14	0xbe6cdb2c	-0.23130482
15	0xbd6a6ea4	-0.05723442
16	0x3dce3abf	0.10069799
17	0xbd32b12e	-0.043626003
18	0x3d7963fb	0.060886364
19	0xbe63eb34	-0.22257692
20	0xbe8257d3	-0.2545763
21	0x3d9d7bd8	0.07689637
22	0xbdbe2e80	-0.09286213
23	0xbe451878	-0.19247615
24	0xbe24f6ef	-0.16109823
25	0xbe2a5fe9	-0.1663815
26	0x3e54cd92	0.20781544
27	0xbdc60ade	-0.096700415
28	0x3d9fdede	0.078061804
29	0x3d65eed0	0.056135952
30	0xbc9b1569	-0.018931108
31	0xbc88a134	-0.01667843
32	0x3e01371b	0.12618677
33	0xbe85c9cd	-0.26130524
34	0xbe264652	-0.16237763
35	0xbe0467e4	-0.12930256
36	0xbd5f0b09	-0.054453883
37	0xbe5f6255	-0.21814854
38	0xbe1e710e	-0.15472814
39	0x3e13ed5f	0.14446019
40	0x3d964c26	0.07338743
41	0xbdab304a	-0.0835882
42	0xbe727a94	-0.23679572
43	0x3da92b32	0.08260192
44	0xbda8ff37	-0.08251803
45	0xbcf541bb	-0.02993857
46	0x3e0e35a3	0.13887648
47	0xbe5ae418	-0.21376073
48	0x3d920128	0.07129127
49	0xbe33f6ee	-0.17574665
50	0xbde04455	-0.10950533
51	0x3c12f080	0.0089684725
52	0x3e2d10c6	0.1690093
53	0xbe186602	-0.14882663
54	0xbe103274	-0.14081746
55	0x3d907dad	0.07055221
56	0xbdfa8110	-0.12231648
57	0x3e195426	0.14973506
58	0xbc738c29	-0.01486496
59	0xbdf13e6f	-0.117794864
60	0x3dbc0248	0.091801226
61	0x3d19c7eb	0.037544172
62	0x3ba0f2b7	0.0049117464
63	0x3e55d82d	0.20883246
64	0x3c6353f3	0.0138749955
65	0xbe034790	-0.12820268
66	0xbe485824	-0.19564873
67	0x3dc0b097	0.09408682
68	0xbd963677	-0.07334607
69	0x3e528015	0.20556672
70	0x3d0fab23	0.035075318
71	0x3e3a4987	0.18192111
72	0xbda160e4	-0.078798085
73	0xbdae0ffe	-0.08499144
74	0x3dfac82f	0.12245213
75	0xbd20c52d	-0.03925054
76	0xbdbda862	-0.09260632
77	0x3de44f1b	0.11147901
78	0xbd8ba6ae	-0.06818901
79	0xbd81f896	-0.06346242
80	0x3d0a2d92	0.033734865
81	0x3e98adcb	0.29820094
82	0x3d83613a	0.06415029
83	0xbe5d3279	-0.21601285
84	0xbe63387e	-0.22189519
85	0xbe1be327	-0.1522337
86	0xbe70af84	-0.23504454
87	0x3e30f0ae	0.17279312
88	0xbe31f1da	-0.17377415
89	0xbcaba704	-0.020953663
90	0xbd2f7a80	-0.042841434
91	0x3d98571d	0.074384905
92	0x3e3ec503	0.18629842
93	0x3dc4dc5f	0.09612345
94	0x3e132043	0.14367776
95	0xbe29216a	-0.16516653
96	0xbd9c6dda	-0.0763814
97	0xbe7c5724	-0.24642617
98	0x3e156613	0.1458972
99	0xbe192201	-0.14954378
100	0xbcb51e10	-0.022109061
101	0xbdf789fd	-0.12086866
102	0xbddaba85	-0.10680107
103	0x3d048d70	0.032361448
104	0x3d585406	0.052814506
105	0xbe3fd1a6	-0.18732318
106	0x3d883a43	0.066517375
107	0xbb9773f7	-0.0046219784
108	0xbe84846b	-0.25882277
109	0x3bb43e3a	0.005500582
110	0x3d7422c2	0.05960346
111	0xbe080a75	-0.13285239
112	0x3e70842d	0.23487921
113	0x3e2b826c	0.16748971
114	0xbcd37b68	-0.02581568
115	0xbdcb1168	-0.09915429
116	0x3d256745	0.04038169
117	0x3de21c77	0.110405855
118	0xbe32c125	-0.17456491
119	0x3e568792	0.20950153
120	0xbe749bb4	-0.23887521
121	0xbb958a0c	-0.0045635756
122	0xbe51dd86	-0.2049466
123	0x3da90e96	0.08254735
124	0xbe2aa850	-0.16665769
125	0x3c0fe13a	0.008781726
126	0x3e23cdb0	0.15996432
127	0xbe60f3f0	-0.21968055
128	0x3c98308c	0.018577836
129	0xbe18b2da	-0.14911976
130	0xbe5f9d47	-0.2183734
131	0x3db9047a	0.09034057
132	0xbd915c4e	-0.07097684
133	0xbcbc8343	-0.02301181
134	0xbe123ddb	-0.14281408
135	0xbdb0be62	-0.08630063
136	0x3c6399ad	0.01389162
137	0xbc9695e2	-0.018382017
138	0x3e348c19	0.17631568
139	0x3e28435a	0.16431943
140	0xbe05735e	-0.1303229
141	0x3da4efcc	0.0805355
142	0xbe119d6c	-0.14220208
143	0xbe2f8622	-0.17141011
144	0x3e2cdfad	0.168822
145	0xbd3b3900	-0.045708656
146	0x3db212b6	0.08694975
147	0xbe0a03d2	-0.1347802
148	0xbcac6725	-0.021045277
149	0xbdcc7679	-0.09983534
150	0x3e6eebd9	0.23332156
151	0x3bec2cb4	0.0072074775
152	0x3e0b0e4b	0.13579671
153	0x3dd3298d	0.103106596
154	0x3e454311	0.19263865
155	0xbdd0bb65	-0.10191993
156	0xbe188923	-0.14896064
157	0xbd4834f3	-0.04887862
158	0x3cc421cf	0.023941902
159	0x3e12a654	0.14321262
160	0x3dd6abf5	0.10482017
161	0xbd487442	-0.048938997
162	0x3d48d377	0.049029794
163	0x3e2527cd	0.16128464
164	0xbd81db47	-0.06340652
165	0xbe4d2a56	-0.20035681
166	0xbc8a2172	-0.016861651
167	0xbe316612	-0.17324093
168	0xbdd87d1d	-0.105707385
169	0xbd3a8031	-0.04553241
170	0x3dba275f	0.09089541
171	0xbd6de8bf	-0.058083292
172	0xbd09c243	-0.033632528
173	0xbe316cb4	-0.17326623
174	0x3d786d35	0.060651023
175	0x3d310817	0.043220606
176	0xbd6d70e5	-0.057968993
177	0xbe1003ec	-0.14063996
178	0x3e05cae6	0.13065681
179	0xbe7111c7	-0.23541938
180	0x3e207ac8	0.15671837
181	0x3e0f0406	0.13966379
182	0xbda53369	-0.08066446
183	0x3d68335a	0.056689598
184	0xbd0ab0a7	-0.033859875
185	0xbdd050a5	-0.10171632
186	0xbdf2a72e	-0.11848293
187	0xbd90fcf8	-0.070795
188	0x3e42f8ba	0.19040194
189	0x3e236560	0.1595664
190	0x3c647cca	0.013945768
191	0xbdaab7e6	-0.08335857
192	0xbd3203ad	-0.043460537
193	0xbe12f985	-0.14352997
194	0x3e6522d6	0.2237657
195	0x3cfb761c	0.030695967
196	0xbc31bcb5	-0.010848214
197	0x3e2c5f94	0.16833335
198	0xbe3fdcff	-0.18736647
199	0x3e1f523f	0.15558718
200	0x3e184f82	0.1487408
201	0xbe0dfd81	-0.13866235
202	0xbdbfefad	-0.093718864
203	0x3ded788c	0.11595258
204	0x3e2f0c40	0.17094517
205	0x3df995f2	0.12186803
206	0xbd2a32a9	-0.04155222
207	0xbd8bb726	-0.06822042
208	0x3e37cf0e	0.17950079
209	0xbe1c0a2a	-0.15238252
210	0x3ddc79c9	0.10765416
211	0x3d86c3f3	0.06580343
212	0xbe2d0f17	-0.16900288
213	0x3e2ea36f	0.17054532
214	0xbe417a36	-0.18894276
215	0xbd948d80	-0.072535515
216	0x3c8f3468	0.017481044
217	0x3dd4099f	0.103533976
218	0x3db32aa8	0.087483704
219	0xbd83d30b	-0.064367376
220	0x3e04d4bd	0.12971778
221	0x3e1d81c7	0.15381537
222	0xbda7bc67	-0.08190232
223	0x3e41198d	0.18857403
224	0xbe18213b	-0.14856426
225	0x3db0cf3e	0.08633278
226	0xbdd00877	-0.101578645
227	0xbe64d036	-0.22345051
228	0xbd638afd	-0.05555247
229	0xbcac69ea	-0.021046598
230	0x3da2cbfe	0.07949065
231	0xbcde2e56	-0.027121704
232	0xbdb4b43d	-0.0882344
233	0x3e3b27f4	0.1827696
234	0x3e24a8ef	0.16080068
235	0x3e02dbc2	0.12779143
236	0x3dd86d64	0.105677396
237	0x3dc66135	0.096865095
238	0x3e283749	0.1642734
239	0x3d489222	0.048967488
240	0xbdb8e54e	-0.090281114
241	0xbe4d7e52	-0.20067719
242	0x3d563702	0.052298553
243	0x3cbcbccd	0.023039246
244	0xbe36644c	-0.17811698
245	0x3e5b9453	0.214433
246	0x3ce21371	0.027597161
247	0x3dc111d8	0.094272316
248	0xbe3e3b89	-0.18577398
249	0x3e4e95d7	0.20174347
250	0xbe51e96f	-0.20499204
251	0x3dd2eec3	0.102994464
252	0x3e81bcdf	0.2533941
253	0x3e117822	0.14205983
254	0x3d9b3ca5	0.075799264
255	0x3e19d917	0.1502422

simple_rnn/simple_rnn_cell/bias1 f4 [250]
0	0x3b74cec8	0.0037354697
1	0xbb807873	-0.0039206087
2	0x39acf485	0.00032988578
3	0xbab6d140	-0.0013947859
4	0x3a27f141	0.0006406494
5	0xbb937ca7	-0.0045009437
6	0xbb3182ac	-0.0027085943
7	0xbaed082c	-0.00180841
8	0xbaf10c26	-0.0018390461
9	0xbba68839	-0.005082157
10	0xbc506f29	-0.012721815
11	0x3a902ed1	0.001100028
12	0xba070683	-0.00051508116
13	0xbac3660b	-0.001490773
14	0xba98c2b6	-0.0011654708
15	0xbb200cc3	-0.002442167
16	0xbb0744ed	-0.0020640448
17	0x3ae7246c	0.0017634756
18	0x3a3d1ff7	0.0007214541
19	0xba8163ec	-0.0009871698
20	0xba0980c2	-0.00052453217
21	0xba078129	-0.00051690877
22	0x3b9563ee	0.0045590317
23	0x3baedc48	0.005336318
24	0x3ba87adc	0.005141599
25	0xbaada1d2	-0.0013247079
26	0x3a9e7abc	0.0012091021
27	0xbb6c53dd	-0.0036060729
28	0xbb7f6f9f	-0.0038976443
29	0x3b2015d0	0.0024427064
30	0x3b1bc291	0.0023767094
31	0xbb964c4b	-0.0045867315
32	0x3a413cb2	0.000737141
33	0x3ad90aeb	0.001655904
34	0x39fee1ee	0.00048614986
35	0x3afd4cde	0.0019325276
36	0x3b2d768d	0.0026468367
37	0x390af00b	0.00013250129
38	0x3af68031	0.0018806515
39	0xbbc24294	-0.005928347
40	0xbb2d69ca	-0.002646076
41	0x3a2cb28b	0.0006587884
42	0xbb2ca826	-0.0026345341
43	0x3b31d2cb	0.00271337
44	0xba3f479e	-0.00072967436
45	0xbb1bc45f	-0.002376817
46	0xb980ccee	-0.00024566747
47	0x3b63fef9	0.0034789427
48	0x3b2efa96	0.0026699654
49	0x3a008c96	0.00049037614
50	0x3ad982cc	0.0016594767
51	0xb9f696a5	-0.00047033015
52	0xbb37294e	-0.0027948203
53	0xbb61f2c1	-0.0034476968
54	0xbab86e45	-0.0014070949
55	0x3b3edfb6	0.0029125041
56	0xb79ea7bf	-1.891318e-05
57	0xbae4ce46	-0.0017456494
58	0xbb20d9c5	-0.0024543863
59	0x3b0a6b3a	0.002112104
60	0x3ba502f8	0.0050357543
61	0xb917c09a	-0.00014472232
62	0x3a4472be	0.00074939046
63	0x3aac8c48	0.0013164366
64	0xbad30ab7	-0.0016101216
65	0x3aa0b2f9	0.0012260369
66	0xb9ea2cb4	-0.00044665264
67	0x3bf4b23c	0.0074675363
68	0xbb01e67d	-0.001982122
69	0xbbb62d9a	-0.0055596353
70	0x3c158ba1	0.009127528
71	0x3aec7118	0.0018039076
72	0xba19237c	-0.00058417744
73	0x39b7b272	0.00035037432
74	0xba494b2f	-0.0007678745
75	0x3aaf496c	0.0013373322
76	0xbadcdaed	-0.0016849913
77	0x3a8979f7	0.0010488619
78	0xbb36f850	-0.0027919002
79	0x3ad7c563	0.0016462024
80	0xbad3c386	-0.0016156293
81	0xba2b54af	-0.0006535751
82	0xbb007a55	-0.0019604166
83	0x39ecf124	0.00045193092
84	0x3a0a3031	0.00052714633
85	0x3a0f76d8	0.0005472726
86	0x3a54f7ea	0.00081241
87	0xbb36aa00	-0.0027872324
88	0x3b23ae3f	0.0024975685
89	0x3b404e1a	0.0029343427
90	0xb79c3957	-1.862335e-05
91	0xbad2951f	-0.001606617
92	0xbb48cd74	-0.0030640038
93	0x3b8f0320	0.004364386
94	0xba498b1f	-0.0007688272
95	0x3aa1d562	0.0012346918
96	0xbb2c6572	-0.0026305583
97	0xbaca3f36	-0.0015430215
98	0xb98f8555	-0.00027374426
99	0x3b90cdd8	0.0044190697
100	0x3a900d58	0.0010990305
101	0x3a365425	0.00069552875
102	0x3c063efe	0.008193729
103	0x3acd364a	0.0015656438
104	0xbb62816d	-0.0034562007
105	0xbac352e4	-0.0014902023
106	0x3a9cc2f8	0.0011959961
107	0xbb398139	-0.0028305782
108	0xbaf2dfba	-0.001852981
109	0x3b130579	0.0022433682
110	0xbb4b12c5	-0.003098653
111	0xbb67d8e3	-0.0035377077
112	0x3aaa392b	0.0012987008
113	0xb9c1e6b1	-0.00036983707
114	0x3b2582a7	0.0025254877
115	0x39b36302	0.00034215307
116	0xbbcdd436	-0.006281401
117	0xbade3956	-0.0016954343
118	0x3af8624f	0.0018950197
119	0xbaf26fd5	-0.0018496463
120	0xbb3b8eac	-0.0028618975
121	0xbb1ab39e	-0.0023605595
122	0xbba43b78	-0.005011972
123	0x3a4d8071	0.00078392687
124	0xbadeed2c	-0.0017007939
125	0xbb44e95a	-0.0030046315
126	0xbaa8318c	-0.0012832149
127	0xb9b1cd94	-0.00033913238
128	0xbb541d4c	-0.0032366095
129	0x3b616149	0.0034390262
130	0xbae01f69	-0.0017099205
131	0x3b1e2b12	0.0024134559
132	0x3b9eae89	0.0048425836
133	0x3a0099b3	0.00049057155
134	0x3b026a32	0.0019899723
135	0x3a30cadb	0.0006744095
136	0x3b945a09	0.0045273346
137	0xbb2dfeff	-0.0026549695
138	0x3b2a62ef	0.002599891
139	0x39d0a13a	0.00039792975
140	0x3baae6ea	0.0052155154
141	0x3a38600d	0.00070333557
142	0xb9368f15	-0.00017410175
143	0xbb3298e9	-0.0027251786
144	0x3a69e64c	0.00089225615
145	0x3ab71f82	0.0013971182
146	0xbb0d205e	-0.0021534185
147	0xbb21c86c	-0.002468611
148	0xbba1eb5a	-0.004941386
149	0xbb440afe	-0.0029913778
150	0x3b61ac83	0.00344351
151	0xb9c98b9e	-0.0003844173
152	0xbb4fb4ea	-0.0031693527
153	0x3ab244df	0.0013600847
154	0xbb284ef3	-0.0025681823
155	0xba7d2d72	-0.0009657956
156	0xbad7ac7a	-0.00164546
157	0xb69b79f8	-4.633559e-06
158	0xba81d974	-0.0009906725
159	0x39b612e1	0.0003472781
160	0x3b78629b	0.003790057
161	0xbab4a994	-0.0013783448
162	0xbaf5a8f0	-0.0018742364
163	0xbb78cc54	-0.0037963586
164	0x3b820b72	0.0039686495
165	0x3a1120f0	0.0005536219
166	0xba9be052	-0.0011892414
167	0xba3c568d	-0.0007184528
168	0x3ba5ec40	0.0050635636
169	0xbb82ba74	-0.003989512
170	0x3b068ae3	0.002052956
171	0x3a5afd0b	0.00083537464
172	0x3a8d50c7	0.001078152
173	0xbb2fef4e	-0.0026845518
174	0xbaf9a62e	-0.0019046718
175	0xbb7389ef	-0.0037161072
176	0x3b02c62a	0.001995454
177	0xb9944a62	-0.0002828418
178	0xba0c6ece	-0.00053570874
179	0xbba48efc	-0.005021928
180	0x3b28e88a	0.002577337
181	0x3af1cc51	0.0018447732
182	0xba44fc32	-0.00075143867
183	0x3aec658b	0.0018035633
184	0x3bb8c250	0.005638398
185	0x3a91c529	0.001112138
186	0x3b3d0644	0.0028842846
187	0x3aea9c44	0.0017899354
188	0xba3ec95f	-0.00072779314
189	0xb95affd1	-0.00020885399
190	0xba0678fc	-0.00051297224
191	0xb9d728da	-0.00041038432
192	0x3b09f606	0.0021051182
193	0xb9a8f52f	-0.00032226133
194	0x3b1a8483	0.0023577518
195	0xba95620a	-0.0011397016
196	0x3bceac8d	0.0063071907
197	0x3b16f697	0.0023035163
198	0x3abd2eb4	0.0014433474
199	0xb9e72565	-0.00044087615
200	0xbb6871da	-0.0035468251
201	0x39b22088	0.00033975043
202	0xbb318b06	-0.002709092
203	0x3b07640e	0.0020659002
204	0xbb3ea26b	-0.0029088508
205	0xbac81347	-0.0015264534
206	0xbad8b359	-0.0016532942
207	0xbb6358e8	-0.0034690443
208	0xbb230e61	-0.0024880397
209	0xbb143943	-0.0022617138
210	0xba02353f	-0.0004967041
211	0x3b0986cf	0.0020984893
212	0x3b453aa8	0.0030094776
213	0x3b8b57a7	0.0042523923
214	0xbbc44e6d	-0.0059907944
215	0x3b458085	0.0030136418
216	0xba8362f1	-0.0010023994
217	0xbb6a3a9c	-0.00357405
218	0xba67e14c	-0.00088455225
219	0xbb392b05	-0.0028254401
220	0xba1ccd24	-0.0005981496
221	0xb8f7ca69	-0.0001181558
222	0xbb032a47	-0.0020014213
223	0xba58a9ac	-0.0008265029
224	0x3b978449	0.004623924
225	0xbbc61b91	-0.0060457666
226	0x3ad8a636	0.0016529027
227	0xbbd7e48b	-0.0065885237
228	0xba6efe87	-0.0009116907
229	0xbad1b18a	-0.0015998345
230	0xbabf8ad9	-0.0014613523
231	0xbb80c11b	-0.00392927
232	0xba48b8b4	-0.00076569174
233	0xba9026b9	-0.0010997868
234	0x3b885436	0.0041604294
235	0x3b0e8c9e	0.0021751295
236	0x3a91144c	0.0011068671
237	0xb8a258ad	-7.741279e-05
238	0xbb20b5d0	-0.0024522431
239	0xbb46aeeb	-0.0030316662
240	0x3a4d3cfe	0.0007829218
241	0x3ac06836	0.0014679495
242	0xbbafb3d7	-0.0053620148
243	0xbb468d69	-0.003029669
244	0x3ae45aae	0.0017422044
245	0x39a94a53	0.00032289568
246	0x3af48025	0.0018653913
247	0xbb8b87e7	-0.004258144
248	0xbb37710a	-0.002799096
249	0x3a08faa5	0.0005225337

sequential/simple_rnn/while/simple_rnn_cell/MatMul_1 i1 [250, 250] scale=0.0021881724 zero_point=0
0	0xd2	-0.10065593
1	0x1c	0.06126883
2	0x11	0.03719893
3	0x2d	0.09846776
4	0x0f	0.032822587
5	0x60	0.21006456
6	0xed	-0.041575275
7	0x1e	0.06564517
8	0xee	-0.039387103
9	0xfa	-0.013129035
10	0xf6	-0.021881724
11	0xde	-0.07439786
12	0x3f	0.13785486
13	0xe5	-0.059080657
14	0x13	0.041575275
15	0x00	0.0
16	0xf5	-0.024069896
17	0x02	0.004376345
18	0x01	0.0021881724
19	0xf1	-0.032822587
20	0x48	0.15754841
21	0x0d	0.028446242
22	0xf7	-0.019693552
23	0x0e	0.030634414
24	0xfd	-0.0065645175
25	0x22	0.07439786
26	0xf2	-0.030634414
27	0x02	0.004376345
28	0x0f	0.032822587
29	0xfd	-0.0065645175
30	0x09	0.019693552
31	0xf6	-0.021881724
32	0x24	0.07877421
33	0x1a	0.056892484
34	0xe7	-0.054704312
35	0x0b	0.024069896
36	0x1f	0.06783334
37	0xfd	-0.0065645175
38	0x04	0.00875269
39	0xe1	-0.06783334
40	0xf9	-0.015317207
41	0xdc	-0.07877421
42	0xeb	-0.04595162
43	0xd6	-0.09190324
44	0x0f	0.032822587
45	0x09	0.019693552
46	0x13	0.041575275
47	0xf3	-0.028446242
48	0xf5	-0.024069896
49	0x32	0.109408624
50	0x00	0.0
51	0xd4	-0.096279584
52	0xf5	-0.024069896
53	0x23	0.07658604
54	0xf7	-0.019693552
55	0x14	0.043763448
56	0xcb	-0.11597314
57	0xdf	-0.07220969
58	0xf5	-0.024069896
59	0xf2	-0.030634414
60	0xf1	-0.032822587
61	0x13	0.041575275
62	0xfb	-0.010940862
63	0xdf	-0.07220969
64	0xf6	-0.021881724
65	0xe6	-0.056892484
66	0x00	0.0
67	0x04	0.00875269
68	0xe9	-0.050327964
69	0x3c	0.13129035
70	0x06	0.013129035
71	0x07	0.015317207
72	0x07	0.015317207
73	0xec	-0.043763448
74	0x06	0.013129035
75	0x21	0.07220969
76	0x05	0.010940862
77	0x06	0.013129035
78	0xe3	-0.063457
79	0xea	-0.048139792
80	0xcd	-0.11159679
81	0xef	-0.03719893
82	0xc6	-0.126914
83	0xe7	-0.054704312
84	0xdc	-0.07877421
85	0xf9	-0.015317207
86	0xec	-0.043763448
87	0x1e	0.06564517
88	0xe9	-0.050327964
89	0xe2	-0.06564517
90	0xf8	-0.01750538
91	0x1d	0.063457
92	0x1d	0.063457
93	0xdd	-0.07658604
94	0x08	0.01750538
95	0x13	0.041575275
96	0xdf	-0.07220969
97	0xd6	-0.09190324
98	0x1a	0.056892484
99	0xca	-0.11816131
100	0xf6	-0.021881724
101	0xee	-0.039387103
102	0xfe	-0.004376345
103	0x04	0.00875269
104	0xc3	-0.13347852
105	0x07	0.015317207
106	0xf3	-0.028446242
107	0x26	0.08315055
108	0xee	-0.039387103
109	0xee	-0.039387103
110	0xd4	-0.096279584
111	0x17	0.050327964
112	0xef	-0.03719893
113	0xe3	-0.063457
114	0xcf	-0.10722045
115	0x06	0.013129035
116	0x05	0.010940862
117	0xb8	-0.15754841
118	0x32	0.109408624
119	0xfe	-0.004376345
120	0x12	0.039387103
121	0xfe	-0.004376345
122	0xe6	-0.056892484
123	0xf3	-0.028446242
124	0x16	0.048139792
125	0xea	-0.048139792
126	0xd9	-0.08533873
127	0xf4	-0.02625807
128	0x30	0.10503228
129	0xec	-0.043763448
130	0xe3	-0.063457
131	0x52	0.17943014
132	0xe9	-0.050327964
133	0xd1	-0.102844104
134	0x02	0.004376345
135	0xf4	-0.02625807
136	0x34	0.11378497
137	0x34	0.11378497
138	0xe5	-0.059080657
139	0x01	0.0021881724
140	0x2b	0.094091415
141	0xdf	-0.07220969
142	0x19	0.054704312
143	0x05	0.010940862
144	0x09	0.019693552
145	0xea	-0.048139792
146	0x0d	0.028446242
147	0xf5	-0.024069896
148	0x1c	0.06126883
149	0xe8	-0.05251614
150	0x18	0.05251614
151	0x26	0.08315055
152	0x1b	0.059080657
153	0x23	0.07658604
154	0x35	0.11597314
155	0x0d	0.028446242
156	0x02	0.004376345
157	0x11	0.03719893
158	0xe4	-0.06126883
159	0x27	0.08533873
160	0xd3	-0.09846776
161	0x0d	0.028446242
162	0x0d	0.028446242
163	0xdb	-0.08096238
164	0xf0	-0.03501076
165	0xfb	-0.010940862
166	0xf1	-0.032822587
167	0xe5	-0.059080657
168	0x1b	0.059080657
169	0x21	0.07220969
170	0xd3	-0.09846776
171	0x26	0.08315055
172	0x37	0.12034948
173	0xe8	-0.05251614
174	0x0c	0.02625807
175	0xd5	-0.094091415
176	0x2b	0.094091415
177	0xe4	-0.06126883
178	0x21	0.07220969
179	0x26	0.08315055
180	0xe9	-0.050327964
181	0x03	0.0065645175
182	0x0d	0.028446242
183	0x2e	0.10065593
184	0x34	0.11378497
185	0xec	-0.043763448
186	0x09	0.019693552
187	0x2a	0.09190324
188	0xf6	-0.021881724
189	0x40	0.14004304
190	0x04	0.00875269
191	0xff	-0.0021881724
192	0x19	0.054704312
193	0xdd	-0.07658604
194	0x03	0.0065645175
195	0xe0	-0.07002152
196	0xd8	-0.087526895
197	0xf9	-0.015317207
198	0xf6	-0.021881724
199	0xed	-0.041575275
200	0x19	0.054704312
201	0x16	0.048139792
202	0x01	0.0021881724
203	0x13	0.041575275
204	0xf5	-0.024069896
205	0x32	0.109408624
206	0x0f	0.032822587
207	0x1c	0.06126883
208	0xe6	-0.056892484
209	0x05	0.010940862
210	0xda	-0.08315055
211	0xc6	-0.126914
212	0x22	0.07439786
213	0xe2	-0.06564517
214	0x22	0.07439786
215	0x17	0.050327964
216	0x22	0.07439786
217	0x00	0.0
218	0xcf	-0.10722045
219	0xec	-0.043763448
220	0xf4	-0.02625807
221	0x00	0.0
222	0x16	0.048139792
223	0x04	0.00875269
224	0xf9	-0.015317207
225	0xd1	-0.102844104
226	0xe0	-0.07002152
227	0xf5	-0.024069896
228	0xf2	-0.030634414
229	0x06	0.013129035
230	0x0d	0.028446242
231	0xc1	-0.13785486
232	0x19	0.054704312
233	0xdf	-0.07220969
234	0x2a	0.09190324
235	0x53	0.18161832
236	0xf8	-0.01750538
237	0xe3	-0.063457
238	0xea	-0.048139792
239	0xfe	-0.004376345
240	0x0d	0.028446242
241	0xfa	-0.013129035
242	0xf3	-0.028446242
243	0x05	0.010940862
244	0xe5	-0.059080657
245	0xd6	-0.09190324
246	0x0a	0.021881724
247	0x0d	0.028446242
248	0x01	0.0021881724
249	0xfe	-0.004376345
250	0x00	0.0
251	0x27	0.08533873
252	0x10	0.03501076
253	0x0c	0.02625807
254	0xe8	-0.05251614
255	0xe5	-0.059080657

sequential/simple_rnn/while/simple_rnn_cell/MatMul i1 [250, 440] scale=0.00093140575 zero_point=0
0	0xd2	-0.042844664
1	0xc0	-0.05960997
2	0xb3	-0.071718246
3	0xf4	-0.011176869
4	0x2b	0.040050447
5	0x11	0.015833898
6	0x0e	0.01303968
7	0xc3	-0.05681575
8	0xf6	-0.009314057
9	0x40	0.05960997
10	0xbf	-0.060541373
11	0xa7	-0.082895115
12	0xfb	-0.0046570287
13	0x21	0.03073639
14	0x40	0.05960997
15	0xce	-0.046570286
16	0x44	0.06333559
17	0xc5	-0.054952938
18	0xca	-0.05029591
19	0xd6	-0.039119042
20	0x04	0.003725623
21	0xb7	-0.06799262
22	0x3d	0.05681575
23	0x02	0.0018628115
24	0xde	-0.031667795
25	0x51	0.075443864
26	0xd6	-0.039119042
27	0xa9	-0.0810323
28	0xa9	-0.0810323
29	0x33	0.047501694
30	0x16	0.020490926
31	0x1e	0.027942173
32	0x61	0.09034636
33	0x34	0.0484331
34	0x56	0.080100894
35	0xe2	-0.027942173
36	0xe0	-0.029804984
37	0xa6	-0.08382652
38	0xb5	-0.06985543
39	0x3a	0.054021534
40	0xc4	-0.055884346
41	0xde	-0.031667795
42	0xd0	-0.044707477
43	0x17	0.021422332
44	0xac	-0.078238085
45	0xb3	-0.071718246
46	0xec	-0.018628115
47	0x30	0.044707477
48	0x1f	0.028873578
49	0x62	0.09127776
50	0xe6	-0.02421655
51	0xa2	-0.08755214
52	0x54	0.078238085
53	0xeb	-0.019559521
54	0xb2	-0.07264965
55	0xaf	-0.075443864
56	0x50	0.07451246
57	0x0a	0.009314057
58	0x3a	0.054021534
59	0x52	0.07637527
60	0x1b	0.025147956
61	0xed	-0.017696708
62	0xed	-0.017696708
63	0xc8	-0.05215872
64	0xac	-0.078238085
65	0xc3	-0.05681575
66	0xeb	-0.019559521
67	0xc8	-0.05215872
68	0x55	0.07916949
69	0x39	0.05309013
70	0x1c	0.02607936
71	0xe3	-0.027010767
72	0x55	0.07916949
73	0x56	0.080100894
74	0x16	0.020490926
75	0xc6	-0.054021534
76	0xab	-0.07916949
77	0xdc	-0.033530608
78	0xbc	-0.06333559
79	0x5c	0.08568933
80	0xc2	-0.057747155
81	0x39	0.05309013
82	0xf6	-0.009314057
83	0x22	0.031667795
84	0xe9	-0.021422332
85	0xa4	-0.08568933
86	0xb4	-0.070786834
87	0x10	0.014902492
88	0x1d	0.027010767
89	0xd7	-0.038187634
90	0x59	0.082895115
91	0x0e	0.01303968
92	0x23	0.0325992
93	0x1b	0.025147956
94	0xb3	-0.071718246
95	0x3f	0.058678564
96	0x08	0.007451246
97	0xa3	-0.08662073
98	0xf8	-0.007451246
99	0x0c	0.011176869
100	0xaa	-0.080100894
101	0x0d	0.012108275
102	0x2e	0.042844664
103	0xe5	-0.025147956
104	0x3d	0.05681575
105	0xc1	-0.058678564
106	0x15	0.019559521
107	0x37	0.051227316
108	0xff	-0.00093140575
109	0x45	0.064266995
110	0x22	0.031667795
111	0xb1	-0.073581055
112	0x11	0.015833898
113	0x3c	0.055884346
114	0x2a	0.039119042
115	0x62	0.09127776
116	0x07	0.00651984
117	0xe6	-0.02421655
118	0x2c	0.04098185
119	0xb6	-0.068924025
120	0x32	0.046570286
121	0x04	0.003725623
122	0x45	0.064266995
123	0xa8	-0.0819637
124	0xdc	-0.033530608
125	0x12	0.016765304
126	0x34	0.0484331
127	0xc7	-0.05309013
128	0xeb	-0.019559521
129	0x4f	0.073581055
130	0xed	-0.017696708
131	0x10	0.014902492
132	0xd1	-0.04377607
133	0xa5	-0.084757924
134	0xed	-0.017696708
135	0x18	0.022353739
136	0xd8	-0.03725623
137	0x5d	0.08662073
138	0x52	0.07637527
139	0xa2	-0.08755214
140	0xa5	-0.084757924
141	0x5c	0.08568933
142	0xaf	-0.075443864
143	0xf3	-0.012108275
144	0xc0	-0.05960997
145	0x36	0.05029591
146	0xe8	-0.022353739
147	0xb8	-0.067061216
148	0x24	0.033530608
149	0xbc	-0.06333559
150	0xf2	-0.01303968
151	0x37	0.051227316
152	0xac	-0.078238085
153	0x4a	0.068924025
154	0xf9	-0.00651984
155	0xf8	-0.007451246
156	0x25	0.034462012
157	0xa0	-0.089414954
158	0x1c	0.02607936
159	0xf5	-0.010245463
160	0x16	0.020490926
161	0xba	-0.0651984
162	0xfe	-0.0018628115
163	0xa3	-0.08662073
164	0xbb	-0.064266995
165	0x0a	0.009314057
166	0xa3	-0.08662073
167	0xcc	-0.0484331
168	0x62	0.09127776
169	0xf9	-0.00651984
170	0x02	0.0018628115
171	0x68	0.0968662
172	0xed	-0.017696708
173	0x1b	0.025147956
174	0xaf	-0.075443864
175	0x5a	0.08382652
176	0x48	0.067061216
177	0xb0	-0.07451246
178	0xcc	-0.0484331
179	0xfd	-0.0027942173
180	0xc9	-0.051227316
181	0x4c	0.070786834
182	0xe8	-0.022353739
183	0xce	-0.046570286
184	0xc3	-0.05681575
185	0xaf	-0.075443864
186	0xc0	-0.05960997
187	0x6c	0.10059182
188	0xf3	-0.012108275
189	0xab	-0.07916949
190	0x30	0.044707477
191	0x58	0.0819637
192	0xbb	-0.064266995
193	0x04	0.003725623
194	0x29	0.038187634
195	0x0e	0.01303968
196	0xc1	-0.058678564
197	0x24	0.033530608
198	0xfd	-0.0027942173
199	0xfc	-0.003725623
200	0xe8	-0.022353739
201	0xcf	-0.04563888
202	0x07	0.00651984
203	0xeb	-0.019559521
204	0xde	-0.031667795
205	0x2b	0.040050447
206	0x3e	0.057747155
207	0xbb	-0.064266995
208	0x3b	0.054952938
209	0x57	0.0810323
210	0xde	-0.031667795
211	0xd8	-0.03725623
212	0x65	0.094071984
213	0x55	0.07916949
214	0xac	-0.078238085
215	0xfd	-0.0027942173
216	0xa7	-0.082895115
217	0x11	0.015833898
218	0xfa	-0.0055884346
219	0x1d	0.027010767
220	0xed	-0.017696708
221	0xbc	-0.06333559
222	0x2b	0.040050447
223	0xc2	-0.057747155
224	0xb8	-0.067061216
225	0x39	0.05309013
226	0x27	0.036324825
227	0xba	-0.0651984
228	0x2c	0.04098185
229	0xbd	-0.062404186
230	0x45	0.064266995
231	0xbc	-0.06333559
232	0x26	0.035393417
233	0x16	0.020490926
234	0xfb	-0.0046570287
235	0x2d	0.04191326
236	0x56	0.080100894
237	0xaa	-0.080100894
238	0xd4	-0.04098185
239	0x01	0.00093140575
240	0xed	-0.017696708
241	0x4c	0.070786834
242	0x34	0.0484331
243	0x4a	0.068924025
244	0xcc	-0.0484331
245	0x1e	0.027942173
246	0x44	0.06333559
247	0x00	0.0
248	0x38	0.05215872
249	0xa6	-0.08382652
250	0xbf	-0.060541373
251	0xc6	-0.054021534
252	0xdc	-0.033530608
253	0x06	0.0055884346
254	0x66	0.09500339
255	0xc4	-0.055884346

simple_rnn_1/simple_rnn_cell_1/bias1 f4 [150]
0	0xbb3747af	-0.002796631
1	0xbb14f9fa	-0.0022732005
2	0x3b0eadd9	0.0021771102
3	0xba0db3db	-0.00054055237
4	0x3a23358e	0.0006225937
5	0x3a2894bd	0.0006430855
6	0x3acc2035	0.0015573563
7	0x3aa6390a	0.0012681794
8	0xbbcc014a	-0.0062257396
9	0x3b004e26	0.001957783
10	0x3a645a2b	0.0008710946
11	0xb9206772	-0.00015297325
12	0xbab9f92b	-0.0014188638
13	0xbb43ea66	-0.002989435
14	0xbb0208dd	-0.0019841709
15	0xbaf0f8c4	-0.0018384685
16	0x3aa7fca3	0.001281638
17	0xbb1ec468	-0.0024225954
18	0xbb038184	-0.002006621
19	0x3b22eb26	0.0024859398
20	0xbb534823	-0.0032239042
21	0xb9bc7e90	-0.0003595245
22	0x3a80590c	0.0009792163
23	0x3b7c4833	0.0038495183
24	0xba1aed6e	-0.00059100136
25	0xbb88bb41	-0.004172713
26	0xbae951a9	-0.0017800826
27	0x3a37d6c7	0.00070129003
28	0xba2dcff6	-0.0006630415
29	0xbb5ea00c	-0.0033969907
30	0x39837f8f	0.00025081306
31	0xbb5946d8	-0.0033153798
32	0x3b729d38	0.003701998
33	0x3b0ede07	0.002179982
34	0x39ebf9dd	0.00045008856
35	0x3a844b53	0.0010093249
36	0x3ac42159	0.0014963552
37	0xbadb2700	-0.0016719997
38	0xba56dea8	-0.00081966305
39	0xba7d21dd	-0.000965623
40	0xb95f849b	-0.00021316337
41	0x3b2bc416	0.0026209406
42	0xb9b1d90e	-0.0003392179
43	0x3acef085	0.0015788233
44	0xbb7e22fd	-0.003877818
45	0xba2db9a7	-0.00066270906
46	0x3aa8cfd9	0.0012879326
47	0x3ae96f5d	0.0017809678
48	0x3b92c1f1	0.004478686
49	0xbabc514e	-0.0014367492
50	0x3b31f8d8	0.002715638
51	0x3b36e61a	0.0027908147
52	0xbb034c2a	-0.002003441
53	0xbaf9c229	-0.0019055057
54	0xba4fd84c	-0.0007928654
55	0xbac7d896	-0.0015247043
56	0xbb3d7287	-0.0028907375
57	0x3abc2e34	0.0014357031
58	0x3934f282	0.00017256479
59	0xbb156ff0	-0.0022802316
60	0x3b015df4	0.0019739838
61	0x3a766120	0.0009398628
62	0x3ad7700f	0.0016436594
63	0xbb03c2b8	-0.0020105075
64	0x3b6812dc	0.0035411632
65	0x3a53d90c	0.0008081354
66	0x3b557e3c	0.0032576462
67	0x3a61ca40	0.00086132064
68	0xba703c12	-0.00091642246
69	0xbb726653	-0.003698726
70	0xba8cb601	-0.0010735394
71	0x3a314f57	0.0006763837
72	0x3ac8db91	0.0015324225
73	0xba8a14cd	-0.0010534764
74	0xbb5f37c9	-0.003406035
75	0x3b18c582	0.0023311083
76	0xbba11fe6	-0.0049171327
77	0x3b34fa5b	0.0027615044
78	0xbb52d179	-0.0032168312
79	0x3ad00221	0.0015869775
80	0xb958d853	-0.00020679952
81	0x398d2ec9	0.00026928473
82	0xbb31efaf	-0.002715092
83	0x3ba34923	0.004983084
84	0xbb15f609	-0.0022882244
85	0xbae97e4f	-0.0017814132
86	0xbafc8d8f	-0.0019268262
87	0x3c108985	0.00882185
88	0x3afecc0f	0.0019439476
89	0x3b2cddf5	0.0026377414
90	0x39f17615	0.0004605508
91	0x3b8f416c	0.0043718126
92	0xbb02250b	-0.0019858505
93	0x3acbe3b5	0.0015555533
94	0xbb0738f3	-0.002063331
95	0xbaacc91d	-0.0013182495
96	0xba612f5f	-0.00085901277
97	0xbaea6026	-0.0017881438
98	0x3a937d03	0.0011252466
99	0xb9db6404	-0.00041845453
100	0xbb23111c	-0.0024882024
101	0xbb236c63	-0.002493643
102	0x3a2f7d7e	0.000669442
103	0x3acb424a	0.0015507427
104	0xbb0bc1a3	-0.0021325133
105	0xb973d08c	-0.00023251976
106	0x3b887a57	0.0041649747
107	0xba98569c	-0.0011622491
108	0x3a20a997	0.00061287865
109	0xb9cd826f	-0.00039197828
110	0xbba89c3a	-0.005145577
111	0xbb09fd80	-0.0021055639
112	0x3abade2d	0.0014256887
113	0x3ae2a671	0.0017292035
114	0x3a8e345d	0.0010849346
115	0xbabaf019	-0.0014262229
116	0x3ad071aa	0.0015903015
117	0x3b5feb09	0.0034167191
118	0xbbbc16c1	-0.005740017
119	0xba4fe9fe	-0.0007931291
120	0x395ab56d	0.00020857686
121	0x3aae8979	0.0013316117
122	0xbb621218	-0.0034495648
123	0xbbc0388c	-0.005866116
124	0xbb291bdb	-0.0025803957
125	0xbb21dc19	-0.0024697839
126	0x3b7d672e	0.0038666236
127	0x3a5d1db9	0.000843491
128	0x3a906635	0.0011016788
129	0xbb59068b	-0.0033115472
130	0x3aab7445	0.0013080916
131	0x3a39b94b	0.0007084801
132	0x3983e2b6	0.0002515518
133	0x3ac3aec6	0.0014929406
134	0xbb21c0af	-0.0024681499
135	0x3a403d6d	0.0007333372
136	0xb6d56dc3	-6.3606726e-06
137	0xbb3ea3bf	-0.00290893
138	0x3b46a68d	0.0030311674
139	0x3b1e5277	0.002415804
140	0xb70b7462	-8.312143e-06
141	0xbae638d0	-0.0017564539
142	0xba2fa277	-0.00066999294
143	0xbb3c2bf4	-0.0028712722
144	0x3b24cfd6	0.0025148294
145	0x393f3a80	0.00018236972
146	0x3b7e0bcb	0.0038764353
147	0x3b2f195e	0.0026718
148	0x3ba6f076	0.005094583
149	0xbb53ec81	-0.0032337012

sequential/simple_rnn_1/while/simple_rnn_cell_1/MatMul_1 i1 [150, 150] scale=0.0030056394 zero_point=0
0	0x15	0.06311843
1	0x28	0.12022558
2	0xfe	-0.006011279
3	0xdb	-0.111208655
4	0x27	0.11721994
5	0x18	0.072135344
6	0xff	-0.0030056394
7	0x1c	0.08415791
8	0x22	0.10219174
9	0x32	0.15028197
10	0xf6	-0.030056395
11	0xd2	-0.13825941
12	0xc5	-0.17733273
13	0x10	0.04809023
14	0xd9	-0.11721994
15	0xcc	-0.15629324
16	0x18	0.072135344
17	0x0e	0.042078953
18	0xf6	-0.030056395
19	0x1d	0.087163545
20	0xe2	-0.090169184
21	0x05	0.015028197
22	0xe7	-0.07514098
23	0x28	0.12022558
24	0x05	0.015028197
25	0x21	0.0991861
26	0x16	0.06612407
27	0x13	0.05710715
28	0x1f	0.09317482
29	0x1f	0.09317482
30	0xfc	-0.012022558
31	0xe3	-0.087163545
32	0x06	0.018033836
33	0xd2	-0.13825941
34	0xe5	-0.08115227
35	0xf1	-0.045084592
36	0x26	0.1142143
37	0xeb	-0.06311843
38	0xc5	-0.17733273
39	0x19	0.07514098
40	0xe0	-0.09618046
41	0x36	0.16230454
42	0x0f	0.045084592
43	0xf2	-0.042078953
44	0xdd	-0.10519738
45	0xf5	-0.033062033
46	0xe6	-0.07814662
47	0xe2	-0.090169184
48	0x0c	0.036067672
49	0xfb	-0.015028197
50	0xe6	-0.07814662
51	0x1f	0.09317482
52	0xf8	-0.024045115
53	0xfa	-0.018033836
54	0x35	0.15929888
55	0xe3	-0.087163545
56	0xec	-0.06011279
57	0x07	0.021039477
58	0x14	0.06011279
59	0xfb	-0.015028197
60	0x23	0.10519738
61	0xe3	-0.087163545
62	0xf8	-0.024045115
63	0xfb	-0.015028197
64	0xfd	-0.009016918
65	0x2e	0.13825941
66	0xf5	-0.033062033
67	0x1c	0.08415791
68	0x0b	0.033062033
69	0xf6	-0.030056395
70	0x0d	0.03907331
71	0x25	0.111208655
72	0xf5	-0.033062033
73	0xef	-0.05109587
74	0x0e	0.042078953
75	0xec	-0.06011279
76	0xe0	-0.09618046
77	0x1b	0.08115227
78	0xf5	-0.033062033
79	0xbe	-0.1983722
80	0x05	0.015028197
81	0xe7	-0.07514098
82	0x29	0.12323122
83	0xf5	-0.033062033
84	0xe7	-0.07514098
85	0xc7	-0.17132145
86	0x11	0.05109587
87	0xef	-0.05109587
88	0x02	0.006011279
89	0xd5	-0.1292425
90	0xee	-0.054101508
91	0x01	0.0030056394
92	0x31	0.14727633
93	0xeb	-0.06311843
94	0xf9	-0.021039477
95	0x15	0.06311843
96	0xfd	-0.009016918
97	0x00	0.0
98	0xe2	-0.090169184
99	0x0c	0.036067672
100	0xfe	-0.006011279
101	0xf9	-0.021039477
102	0xc5	-0.17733273
103	0xea	-0.06612407
104	0x2f	0.14126505
105	0xec	-0.06011279
106	0x1a	0.07814662
107	0x03	0.009016918
108	0x08	0.024045115
109	0xf1	-0.045084592
110	0x04	0.012022558
111	0x25	0.111208655
112	0xd3	-0.13525377
113	0x1c	0.08415791
114	0xfe	-0.006011279
115	0xeb	-0.06311843
116	0xfb	-0.015028197
117	0xdf	-0.0991861
118	0xfe	-0.006011279
119	0xf3	-0.03907331
120	0x02	0.006011279
121	0x12	0.054101508
122	0xeb	-0.06311843
123	0x1f	0.09317482
124	0xe6	-0.07814662
125	0xf4	-0.036067672
126	0x42	0.1983722
127	0xf9	-0.021039477
128	0xde	-0.10219174
129	0xf1	-0.045084592
130	0x2d	0.13525377
131	0xfa	-0.018033836
132	0xd5	-0.1292425
133	0xe3	-0.087163545
134	0x28	0.12022558
135	0xef	-0.05109587
136	0x1a	0.07814662
137	0x28	0.12022558
138	0x2c	0.13224813
139	0xee	-0.054101508
140	0xfb	-0.015028197
141	0x0a	0.030056395
142	0x21	0.0991861
143	0xce	-0.15028197
144	0x3d	0.183344
145	0x09	0.027050754
146	0x04	0.012022558
147	0x13	0.05710715
148	0xf6	-0.030056395
149	0xfc	-0.012022558
150	0xf9	-0.021039477
151	0x01	0.0030056394
152	0x02	0.006011279
153	0xf5	-0.033062033
154	0x04	0.012022558
155	0xfa	-0.018033836
156	0xa4	-0.27651882
157	0xc9	-0.16531017
158	0xff	-0.0030056394
159	0x0c	0.036067672
160	0x15	0.06311843
161	0x15	0.06311843
162	0x22	0.10219174
163	0x16	0.06612407
164	0xf2	-0.042078953
165	0xe8	-0.072135344
166	0x01	0.0030056394
167	0x18	0.072135344
168	0xf9	-0.021039477
169	0x26	0.1142143
170	0xf2	-0.042078953
171	0xe6	-0.07814662
172	0x30	0.14427069
173	0xdd	-0.10519738
174	0x20	0.09618046
175	0x18	0.072135344
176	0x0b	0.033062033
177	0xe6	-0.07814662
178	0xe1	-0.09317482
179	0xf0	-0.04809023
180	0xe2	-0.090169184
181	0xe2	-0.090169184
182	0xee	-0.054101508
183	0xfa	-0.018033836
184	0xe1	-0.09317482
185	0x0e	0.042078953
186	0xe1	-0.09317482
187	0xd0	-0.14427069
188	0x22	0.10219174
189	0x21	0.0991861
190	0x14	0.06011279
191	0x01	0.0030056394
192	0x0f	0.045084592
193	0x28	0.12022558
194	0xf5	-0.033062033
195	0xdc	-0.108203016
196	0xf3	-0.03907331
197	0xf7	-0.027050754
198	0xf1	-0.045084592
199	0x10	0.04809023
200	0xe9	-0.069129705
201	0x0b	0.033062033
202	0xf3	-0.03907331
203	0xfe	-0.006011279
204	0x2e	0.13825941
205	0xca	-0.16230454
206	0x1a	0.07814662
207	0xfa	-0.018033836
208	0xe8	-0.072135344
209	0xdd	-0.10519738
210	0x25	0.111208655
211	0xf3	-0.03907331
212	0xe8	-0.072135344
213	0xf7	-0.027050754
214	0x15	0.06311843
215	0xef	-0.05109587
216	0xfe	-0.006011279
217	0x19	0.07514098
218	0xd7	-0.12323122
219	0xff	-0.0030056394
220	0xc2	-0.18634965
221	0x1f	0.09317482
222	0x33	0.1532876
223	0x24	0.108203016
224	0xec	-0.06011279
225	0x21	0.0991861
226	0x1d	0.087163545
227	0x13	0.05710715
228	0xf8	-0.024045115
229	0x0f	0.045084592
230	0x11	0.05109587
231	0x17	0.069129705
232	0xf4	-0.036067672
233	0xe9	-0.069129705
234	0xe4	-0.08415791
235	0x1e	0.090169184
236	0x04	0.012022558
237	0x37	0.16531017
238	0x22	0.10219174
239	0xf9	-0.021039477
240	0xf8	-0.024045115
241	0xef	-0.05109587
242	0xd9	-0.11721994
243	0x01	0.0030056394
244	0x3a	0.17432709
245	0xe8	-0.072135344
246	0xe2	-0.090169184
247	0xfc	-0.012022558
248	0x31	0.14727633
249	0x1a	0.07814662
250	0xf5	-0.033062033
251	0xe8	-0.072135344
252	0xdc	-0.108203016
253	0xb5	-0.22542296
254	0xfb	-0.015028197
255	0xeb	-0.06311843
